…
      "outputs": []
    },
    {
      "cell_type": "code",
      "metadata": {
        "id": "9z9RnnwdA71z",
        "colab_type": "code",
        "outputId": "4afe1f1a-0946-4486-efe1-c92fe4fb9476",
        "colab": {
          "base_uri": "https://localhost:8080/",
          "height": 408
        }
      },
      "source": [
        "learn.model"
      ],
      "execution_count": 0,
      "outputs": [
        {
          "output_type": "execute_result",
          "data": {
            "text/plain": [
              "TabularModel(\n",
              "  (embeds): ModuleList(\n",
              "    (0): Embedding(222, 33)\n",
              "    (1): Embedding(3342, 151)\n",
              "  )\n",
              "  (emb_drop): Dropout(p=0.0, inplace=False)\n",
              "  (bn_cont): BatchNorm1d(1, eps=1e-05, momentum=0.1, affine=True, track_running_stats=True)\n",
              "  (layers): Sequential(\n",
              "    (0): LinBnDrop(\n",
              "      (0): BatchNorm1d(185, eps=1e-05, momentum=0.1, affine=True, track_running_stats=True)\n",
              "      (1): Linear(in_features=185, out_features=200, bias=False)\n",
              "      (2): ReLU(inplace=True)\n",
              "    )\n",
              "    (1): LinBnDrop(\n",
              "      (0): BatchNorm1d(200, eps=1e-05, momentum=0.1, affine=True, track_running_stats=True)\n",
              "      (1): Linear(in_features=200, out_features=100, bias=False)\n",
              "      (2): ReLU(inplace=True)\n",
              "    )\n",
              "    (2): LinBnDrop(\n",
              "      (0): Linear(in_features=100, out_features=1, bias=True)\n",
              "    )\n",
              "  )\n",
              ")"
            ]
          },
          "metadata": {
            "tags": []
          },
          "execution_count": 58
        }
      ]
    },
    {
      "cell_type": "code",
      "metadata": {
        "id": "kN0e_8h0A-EU",
        "colab_type": "code",
        "outputId": "b15b86a2-e841-4420-d945-e2290d55ec92",
…
              "        )\n",
              "        (2): WeightDropout(\n",
              "          (module): LSTM(1152, 400, batch_first=True)\n",
              "        )\n",
              "      )\n",
              "      (input_dp): RNNDropout()\n",
              "      (hidden_dps): ModuleList(\n",
              "        (0): RNNDropout()\n",
              "        (1): RNNDropout()\n",
              "        (2): RNNDropout()\n",
              "      )\n",
              "    )\n",
              "  )\n",
              "  (tab): TabularModel(\n",
              "    (embeds): ModuleList(\n",
              "      (0): Embedding(222, 33)\n",
              "      (1): Embedding(3342, 151)\n",
              "    )\n",
              "    (emb_drop): Dropout(p=0.0, inplace=False)\n",
              "    (bn_cont): BatchNorm1d(1, eps=1e-05, momentum=0.1, affine=True, track_running_stats=True)\n",
              "    (layers): Sequential(\n",
              "      (0): LinBnDrop(\n",
              "        (0): BatchNorm1d(185, eps=1e-05, momentum=0.1, affine=True, track_running_stats=True)\n",
              "        (1): Linear(in_features=185, out_features=200, bias=False)\n",
              "        (2): ReLU(inplace=True)\n",
              "      )\n",
              "      (1): LinBnDrop(\n",
              "        (0): BatchNorm1d(200, eps=1e-05, momentum=0.1, affine=True, track_running_stats=True)\n",
              "        (1): Linear(in_features=200, out_features=100, bias=False)\n",
              "        (2): ReLU(inplace=True)\n",
              "      )\n",
              "      (2): LinBnDrop(\n",
              "        (0): Linear(in_features=100, out_features=1, bias=True)\n",
              "      )\n",
              "    )\n",
              "  )\n",
              "  (head): Sequential(\n",
              "    (0): AdaptiveConcatPool2d(\n",
              "      (ap): AdaptiveAvgPool2d(output_size=1)\n",
              "      (mp): AdaptiveMaxPool2d(output_size=1)\n",
              "    )\n",
              "    (1): Flatten(full=False)\n",
              "    (2): BatchNorm1d(2333, eps=1e-05, momentum=0.1, affine=True, track_running_stats=True)\n",
              "    (3): Dropout(p=0.25, inplace=False)\n",
              "    (4): Linear(in_features=2333, out_features=512, bias=False)\n",
              "    (5): ReLU(inplace=True)\n",
              "    (6): BatchNorm1d(512, eps=1e-05, momentum=0.1, affine=True, track_running_stats=True)\n",
              "    (7): Dropout(p=0.5, inplace=False)\n",
              "    (8): Linear(in_features=512, out_features=2, bias=False)\n",
              "  )\n",
              ")"
            ]
          },
          "metadata": {
            "tags": []
          },
          "execution_count": 71
        }
      ]
    },
    {
      "cell_type": "code",
      "metadata": {
        "id": "elcayMo8ZRpE",
        "colab_type": "code",
        "colab": {}
      },
      "source": [
        "class ReadTabLine(ItemTransform):\n",
…
